garage_back_end/projects/ppo/saved_models/2025_03_02_12_48_saved_critic_step_22_total_steps_100.pth (torch, 22932 bytes, 5 tensors)

weight f4 [64, 4]
00000000: e9ba 1ebe 53d1 f33c 0594 b8be 3f28 1a3e
00000010: cd03 49be f028 d2bd 5aca dd3e cc78 103f
00000020: 7fe4 a63b fbc8 80be 01db dabe d63d 90bb
00000030: 8a3f c63d 3b27 d5be aa48 c0be db87 273d
00000040: a10a 373e 9c84 77be 339a 8abc c512 af3e
00000050: ab58 39be 42ea fb3e 0afb d33e 66db a83e
00000060: 0429 263d fda9 843e 2f66 94be 4220 013e
00000070: fa34 cb3e 2ae9 37be 84b2 df3e cc94 fc3e
00000080: cb9e eb3e f1e0 ebbe 0fb8 4dbe 5090 443b
00000090: 9aa7 153e 9f69 ec3c a398 3abe 6678 debe
000000a0: ebd9 573e 4d22 cbbe fe47 2c3e 51b3 d0be
000000b0: 3db6 64bd 1f27 c6be d2c0 acbe dd33 fe3e
000000c0: 2be8 edbd 69f2 b53e c09a 82be 7591 de3e
000000d0: 81aa 4cbe 71f5 f33c ca0b 23bd 6913 b03d
000000e0: f596 18bd 8a8c 6c3e 675b b6bd d54f 7d3e
000000f0: 2b84 80be df1e 23be ddf4 553e 7725 d13e
00000100: c816 f53e 76e1 f9bd adc7 9b3e 93ae 22bd
00000110: d007 0a3d 7da9 ed3e e415 d0be cdcd ea3e
00000120: bb3d 2f3e b5be 8abe 268a 973d c7bf a63b
00000130: 3328 d13d d8a6 c8be 5ad8 9d3e fabf f7be
00000140: 21a2 f33e 791e a5be 77df af3e b4cf 46bd
00000150: dfa4 52be 3f5f 6fbe 1177 773e 1310 39be
00000160: eeb4 d3bd da23 c1be 4bd5 373e 4861 a7bd
00000170: e77a 9abe 263e acbe ccea 56bd d095 51be
00000180: 2bc9 d13d 2d91 a5bd 976b 6f3e 694b 6fbd
00000190: 0225 86be 8c51 ed3d db1e 8ebe 4e5f 523e
000001a0: 02e9 b03e 5264 913e 5445 77be 13dd 53be
000001b0: 0a00 993e 6400 81be 2217 a6be 46cb d9be
000001c0: 4630 a03e 5980 d43d d774 fcbd 43d8 17be
000001d0: c570 3b3e a5af 473d 430c a63e a30f e63e
000001e0: b171 11be 12a1 eabe 8d39 d83d fbf8 f53c
000001f0: 70b7 9abd 5f8d ecbe fb2b cebe feac 7fbd
00000200: ed73 81be 97e2 e7bd 7208 20be dc14 4a3e
00000210: 24a8 343d 4493 a2bd ab26 f8be 1c79 d83e
00000220: f03b d13d f6eb 50be de5f 35be ee30 213e
00000230: 5e9b eb3e ea9b cabb 3b88 9ebe 5533 a73e
00000240: 72a7 31be 6190 c13d b7cc cfbd 2ea9 febe
00000250: 02be d23e 8e8e e9be e032 0abb 50a9 d8bd
00000260: 7c6d 6fbd 64c5 75be 9aaf 10be 2ff6 f93c
00000270: d2b8 a8bd f03b a53e 280b 793e 6377 25be
00000280: 16a7 533e 1bc5 ffbe 69e5 ce3e 7ca1 24be
00000290: c34d 3f3e 2a46 75be 5631 c93e b47b 9d3e
000002a0: dddb d83e 67cf b63e 6eae bcbe e89f a8be
000002b0: 1762 7cbd f9c7 b43e 44a5 b23e a5b4 b3be
000002c0: 163b 8abe 9b57 a93e 7836 5abe 26ad 5c3c
000002d0: 290f 01be 285b d23e 85e4 893e 394a 81be
000002e0: 251f 5d3e 2a92 c13e 274f e03d 3d24 edbe
000002f0: 64ac 633e f654 c73e 9191 d73e 12f5 38be
00000300: ba26 90bd d24b edbe bbb1 643e 7eed 2e3e
00000310: 4b36 f8bd 3470 77bb f054 f7be 5575 a7be
00000320: f5c5 39be 1064 2cbd f22a de3e 7590 9bbe
00000330: 44a2 bb3d 4f10 eb3e 9dc9 a43e 707c bf3e
00000340: 41f3 5c3e de37 b1be 609b eebd 47be cfbe
00000350: de6f de3e 9ab1 553e 7246 bd3e 2d0b f2bd
00000360: 5ebc 2dbe 9249 59bd 4141 2ebe fe75 bc3e
00000370: 9477 133e 7484 edbe 9bbc 67be 45f7 c8bd
00000380: 69ae 9a3d 9419 b33e 4c5c aa3e b561 833e
00000390: 70e0 87be 7113 0d3e 389a afbe 34f6 bbbe
000003a0: e900 14be ed87 833e 3dc7 f53e cb11 6dbd
000003b0: 1693 173d 01c7 073e adb8 0ebe 3093 7d3e
000003c0: e08d 863e 1621 993e fe54 d73e ce71 723e
000003d0: 8916 2abe ec49 c8be 582e 5ebe 41be 9fbe
000003e0: 5e5b adbe 8eb1 ba3e 261f 023f 5531 f03e
000003f0: 257f 3a3e 33e0 733e f157 e63e c580 77bd
-0.15500988 0.0297629 -0.3605043 0.15054415 -0.19630356 -0.102617145 0.43318444 0.5643432
0.005093157 -0.25153336 -0.42745212 -0.0044019027 0.09680088 -0.41631493 -0.37555438 0.040901046
0.17875148 -0.2417168 -0.016919231 0.34194008 -0.1810023 0.49202162 0.41402465 0.32979888
0.04056646 0.2591094 -0.2898421 0.12609962 0.39688855 -0.17960039 0.43690884 0.49332273
0.46019587 -0.46070054 -0.20089744 0.0029993244 0.14614716 0.028858958 -0.18222289 -0.43451232
0.21079223 -0.39674607 0.16824338 -0.40761808 -0.05583786 -0.38701722 -0.3374086 0.49648944
-0.11616548 0.35536507 -0.2550869 0.4347035 -0.19986917 0.029780122 -0.039806165 0.08597452
-0.03725334 0.23100486 -0.08904152 0.24737485 -0.25100836 -0.15929745 0.20894189 0.40848896
0.47868943 -0.122012064 0.30425778 -0.03971727 0.033698857 0.46418372 -0.406417 0.4586014
0.17113392 -0.27098623 0.073993966 0.0050887796 0.102127455 -0.39189792 0.30829126 -0.48388654
0.47584632 -0.3224981 0.34350178 -0.048537925 -0.20570706 -0.23376177 0.24166514 -0.18072538
-0.10337244 -0.37722665 0.17952459 -0.08172852 -0.30171892 -0.33641165 -0.052470013 -0.20467305
0.10243448 -0.08084331 0.23380886 -0.058421526 -0.2620011 0.115878195 -0.27757916 0.20544168
0.3455277 0.2839685 -0.2414754 -0.20689802 0.29882842 -0.2519561 -0.32439524 -0.42537898
0.3128683 0.10376043 -0.12326973 -0.14828591 0.18304737 0.048751492 0.3243123 0.44933805
-0.14203526 -0.45826012 0.10557852 0.03002595 -0.07554519 -0.46201608 -0.4026793 -0.062420838
-0.25283757 -0.113225155 -0.15628222 0.1973452 0.044105664 -0.07938245 -0.48467 0.422799
0.1021651 -0.20402512 -0.17712352 0.15741321 0.46016973 -0.006183137 -0.3096331 0.3265635
-0.17349032 0.09451366 -0.10146468 -0.4973845 0.4116059 -0.45616573 -0.0021087453 -0.10579169
-0.05845402 -0.2400108 -0.14129487 0.030512897 -0.08238377 0.3227229 0.24320662 -0.16158824
0.20669207 -0.49955067 0.404094 -0.16077226 0.18682007 -0.23952547 0.39295453 0.3075844
0.42355242 0.3570511 -0.3685183 -0.329345 -0.061616983 0.35308817 0.34891713 -0.35098758
-0.26998204 0.3307465 -0.2130984 0.013469016 -0.1260344 0.41085172 0.2693216 -0.2525194
0.21593912 0.37806827 0.10952597 -0.4631671 0.2223373 0.38932008 0.42103246 -0.18062237
-0.070386365 -0.4634691 0.22333424 0.17082784 -0.121197306 -0.0037756087 -0.4830699 -0.32706705
-0.18141921 -0.042087615 0.4339214 -0.3038365 0.09161809 0.4591088 0.3218507 0.37399626
0.21577169 -0.34612936 -0.11650729 -0.40574858 0.43444723 0.20868531 0.36967808 -0.11818538
-0.16966388 -0.053048678 -0.1701708 0.3680877 0.14401084 -0.46390116 -0.22630541 -0.09812788
0.07552797 0.34980452 0.33273542 0.25660482 -0.2653842 0.13776948 -0.34297347 -0.36711276
-0.14453472 0.2568964 0.4800357 -0.057878297 0.037005506 0.13259508 -0.13937636 0.24763179
0.26280117 0.29908055 0.4205703 0.23676226 -0.16610159 -0.39118898 -0.21697366 -0.3119984
-0.3385877 0.36463588 0.5082878 0.46912637 0.18212564 0.23815994 0.4498897 -0.06042554

bias f4 [64]
00000000: f4fd 113e 363a b0be 4b9a a23e a978 07be
00000010: 283c 773e ca8b 9bbe 9647 af3e fcdc ee3e
00000020: 643e 3e3e 9e02 a6be e8aa 6b3e a1cb 50bd
00000030: 4da9 fbbe 1a6c ca3e 1d78 efbe 3520 febe
00000040: f83e 9b3d 2e9e e23e 1346 f13e b51b c43e
00000050: ea32 c6be fb93 abbd 9b15 543e bfcb eabe
00000060: 362f a53e b5b0 e0be 1f27 b73e ad56 b03e
00000070: 2b61 6a3e 3cc7 1c3e 2250 82be 2ac3 59bd
00000080: 85aa b83e 6047 3e3e a026 5dbe 18a9 adbe
00000090: 7e10 debe c988 a3bc 1717 6f3e 6188 81be
000000a0: 1cb7 14bd d948 ca3e fcff bd3d 8c57 19be
000000b0: 1325 f1be b30c 56be 38e5 f6bd 469e 233e
000000c0: 17e0 07bd 4ac8 d3bc 09c6 92be 8f89 f4bd
000000d0: 07a3 1e3e d069 4ebe be7e 9d3e acfe 683e
000000e0: 15d1 fa3c 44e4 5bbe d1da d53e 7ac3 f5be
000000f0: 362b b7be 22a5 f73e 5532 103e 9c3f adbe
0.14257032 -0.3441941 0.3175834 -0.13229622 0.24144042 -0.30380088 0.34234303 0.46652973
0.18578488 -0.32423872 0.23014414 -0.050975446 -0.49152604 0.395356 -0.46771327 -0.49633947
0.0758037 0.44261307 0.47123775 0.3830239 -0.3871072 -0.083778344 0.20711367 -0.4585857
0.32262582 -0.43884817 0.35772035 0.34441128 0.22888629 0.15310377 -0.2545176 -0.05316464
0.36067596 0.18581915 -0.21596766 -0.3391807 -0.43371958 -0.019962685 0.23348652 -0.2529936
-0.03630744 0.39508703 0.09277341 -0.14974803 -0.47098598 -0.20903282 -0.12055439 0.15978345
-0.033172693 -0.025852341 -0.28666714 -0.119403 0.15491877 -0.20157552 0.3076076 0.227534
0.030617276 -0.21473795 0.41768506 -0.480007 -0.35775155 0.48368174 0.140817 -0.33837593

weight f4 [64, 64]
00000000: 9e57 093d 2fbb f73d 4ed2 323c 75ab f43d
00000010: 05a8 b5bc ce30 a73d 2de2 f03d 2bbc 26bd
00000020: f5da 003c 6130 fabd 96c1 cdbd 4aff 2d3d
00000030: 195b 7dbd 6110 e5bd 3778 7f3d 74b7 2b3d
00000040: 2131 b63d 1779 f8bc f5d3 2f3d dd5d eb3d
00000050: 6d5e 87bc 8a98 503c ce7b 163c 64a0 b53a
00000060: 5974 bc3b dbc0 d73d 22c9 003d 14a0 2c3d
00000070: 2150 37bd a9b0 433d 49f9 573c 5a49 c53d
00000080: 8bfb babd 9c2e 9f3d fbe9 893d 1ab9 69bc
00000090: c328 bfbd 9add ef3c af63 5c3d d3b8 cf3d
000000a0: 672b da3d 3700 f43d c489 a7bc 4545 b4bd
000000b0: 3b19 cabd ab44 963b d532 a73d 3739 c7bd
000000c0: 6c7f 693d 8dd2 80bd 35a5 4fbc 7796 0d3d
000000d0: e8a5 773d 96ef 203c 12f3 a7bd 9c42 72bd
000000e0: ca81 83bd 8bb1 dcbd 1c5a 6f3c c981 3ebd
000000f0: ff75 aebc e5b6 e03c 3a27 863d 4ab9 f4bd
00000100: 6c10 f9bc f748 54bc df1e 25bd a3f9 e73b
00000110: fdbe 983d a7f4 54bd 1801 bebd 1fed 38bd
00000120: 718b e33d 2515 323d 2219 b9bc f2f0 a2bd
00000130: 1f2c e1bd 9082 8cbd 06dd 9d3d b012 06be
00000140: c268 cfbd 6bee c23d 5baa 19bc 7401 703d
00000150: c7d3 39bc 20d3 41be 3180 c1bd 0a43 7fbe
00000160: 53aa c83d f293 e4bd 4ca4 283d a43f dd3c
00000170: 331b b7bd 9a66 d6bd cd8a 1dbe 9b1b e2bd
00000180: 346d 64bc 5bff 2e3d c4c6 4abd afc9 3fbb
00000190: 5abc c2bd 355b 3ebd 65ac acbd 7646 7cbd
000001a0: 53f4 08bc 0a41 8e3b 11d5 683d f46c f1bd
000001b0: 3743 f8bd aa73 e4bd 1e5b cd3c e048 4fbc
000001c0: f036 1dbd 928b d2bc a1f3 46be c72e 343d
000001d0: 3d20 723c fab5 88bd d014 4abd e0f9 9e3d
000001e0: f41d 883d 2bf1 6cbe d1d3 a0bd 35f2 10bd
000001f0: e2df 21bc ebca 9abd 8fbe 4bbd f390 cbbd
00000200: 31ad cbbd 5406 ebbd fdb1 623d c431 d4bd
00000210: b43c b9bc 748e 68bc 8c03 6f3d afa3 dabd
00000220: 44f2 263c ea24 f8bc 2cf2 6f3d f567 7e3d
00000230: 376a aebc b061 cebc 3808 473d 5b02 6d3d
00000240: 9a31 e33c 59b2 4bbd 49f5 46bd 88a7 af3c
00000250: b2a0 8b3d d016 f1bc 6062 42bd 9c89 2cbd
00000260: 2734 91bc 0ffd 823d 2810 6dbc 44c9 dc3d
00000270: d476 67bd 7f22 123d dcdb 8dbd 274c bf3d
00000280: a04f ac3d e74f f13d b7e6 0e3d ca49 c5bd
00000290: 28be b6bd ea15 723d b3c1 4b3d 5045 ba3c
000002a0: 90cb b3bc b0f5 fc3d 96ae 88bd e2e3 a63b
000002b0: 5eb5 a9bd b42f 8bbd 46d3 bbbd eeaa d4bd
000002c0: c1c9 05bd fddd 62bd dc8b 8b3d 19dc c6bd
000002d0: 4a61 a03c 7953 c3bd ba93 773d 0695 b63c
000002e0: 8c53 39bd 62e5 25bc 2888 283c a33e 59bd
000002f0: 3354 14bd 7a05 e7bd 8a37 e63d 38b9 d4bc
00000300: 3209 20bc 5a87 893b 9d07 04be 6413 bd3d
00000310: 3e07 813d c590 f3bd 93ce 64bd b98a b5bd
00000320: 3ada 713b ea5a 8b3d eb7f cfbd 1d63 cebd
00000330: 01cf be3d c2d3 55be b3ec c83c 0978 1abe
00000340: 0f60 5a3d 3548 df3c a383 303d ba04 c2bc
00000350: a1ae 50bd bafe b3bd e4b7 06bd 771a f1bd
00000360: 64a2 473b 2734 c4bd fbaf ccbc 8605 20bd
00000370: b4e7 d1bd 045e 9bbd b0ce 98bd 9cba 51bd
00000380: aa9f a7bd b4d5 8fbd 9da1 b73d ca73 debd
00000390: d47b afbd a788 f2bd ddd4 95bd 7978 15bd
000003a0: 1352 723d f904 f63d 7002 ae3d 1bc2 07be
000003b0: 4f40 2fbe 7de0 94be e32f 7f3d 3a83 443c
000003c0: 1685 90bd 35df a5bd 709f 3ebe 52ad f93c
000003d0: ee16 cf3c b246 a6bd 7943 cabd fc42 f3bc
000003e0: 2451 d93c 335d 9ebe 8611 13bd 97e9 5fbd
000003f0: 397a 533c c0e3 e2bd 1c3b b9bd 0bdf 2fbd
0.033530824 0.12096249 0.010914398 0.11946765 -0.022174845 0.08163606 0.117618896 -0.040706795
0.007864703 -0.12216259 -0.10046689 0.04247979 -0.061854456 -0.11184765 0.062370505 0.041923
0.08896089 -0.030331178 0.042926747 0.114925124 -0.016524518 0.012731681 0.009184791 0.0013857004
0.0057511744 0.10534831 0.031441815 0.04214485 -0.04475415 0.047775898 0.013181993 0.09633131
-0.09130009 0.07772562 0.06734081 -0.014265323 -0.093339466 0.029280473 0.053806003 0.10142674
0.106528096 0.119141035 -0.020451434 -0.088022746 -0.098680936 0.0045858226 0.08163992 -0.0972771
0.057006285 -0.062901594 -0.012673666 0.034567323 0.060460955 0.009822747 -0.08200659 -0.059145555
-0.0642124 -0.10776051 0.014608886 -0.04651049 -0.0212965 0.02743096 0.065504506 -0.119494036
-0.030403338 -0.012956849 -0.040312644 0.0070793196 0.07458303 -0.05199113 -0.09277552 -0.04514801
0.11110581 0.043477196 -0.022594992 -0.07956113 -0.109947436 -0.0686084 0.077081725 -0.13093066
-0.10127403 0.09518131 -0.009378995 0.058595136 -0.011341996 -0.18928194 -0.09448279 -0.24927917
0.09798112 -0.11161031 0.04117231 0.027007885 -0.08940735 -0.104687884 -0.1538498 -0.110404216
-0.013942052 0.042723995 -0.049505964 -0.00292645 -0.095085815 -0.0464737 -0.08431319 -0.061590634
-0.008359033 0.0043412494 0.05684382 -0.11788359 -0.12122195 -0.11154874 0.025067862 -0.012651652
-0.03838247 -0.025701318 -0.19428875 0.043989923 0.014778194 -0.06675334 -0.049336255 0.077625036
0.06646338 -0.23138873 -0.07852901 -0.035387237 -0.009880038 -0.07558235 -0.049742278 -0.09939756
-0.09945143 -0.11475816 0.055345524 -0.103610545 -0.022611953 -0.01419412 0.058352992 -0.106757514
0.010189597 -0.03029104 0.058580562 0.06211086 -0.021290882 -0.025193065 0.048591822 0.057863574
0.027733613 -0.049730632 -0.048573766 0.02144219 0.068177596 -0.029429823 -0.0474571 -0.042123422
-0.017725063 0.06395923 -0.014469184 0.10780576 -0.056509808 0.03567743 -0.069267005 0.09340697
0.08413625 0.11782818 0.034887996 -0.09633215 -0.08922988 0.05910293 0.049745273 0.022738129
-0.021947652 0.12351549 -0.066739246 0.0050930837 -0.08286546 -0.06796208 -0.091711566 -0.10384165
-0.03266311 -0.055387486 0.068137854 -0.09709949 0.019577641 -0.095374055 0.060443617 0.022287857
-0.045245692 -0.01012549 0.010286368 -0.05303825 -0.03621311 -0.112803414 0.11241062 -0.025967225
-0.009767817 0.0041970434 -0.12893529 0.09232214 0.063002095 -0.11892847 -0.055861067 -0.0886435
0.0036903755 0.0680445 -0.1013182 -0.10077498 0.093168266 -0.2088156 0.02452693 -0.15084852
0.053314265 0.02725611 0.04309429 -0.023683894 -0.05094779 -0.087888196 -0.032890216 -0.11772626
0.0030461783 -0.0958026 -0.024986258 -0.039067768 -0.10249272 -0.075862914 -0.074612975 -0.051203355
-0.081847504 -0.070231825 0.08966372 -0.10861929 -0.0856854 -0.118424706 -0.07315991 -0.036491845
0.059160303 0.12012667 0.08496559 -0.13257639 -0.17114376 -0.2907752 0.062301528 0.0119941775
-0.07056634 -0.08099214 -0.18615508 0.030478153 0.025279488 -0.08118953 -0.09876151 -0.029695027
0.026527949 -0.3093048 -0.035905384 -0.054666128 0.012907558 -0.11078596 -0.09044477 -0.04293732

bias f4 [64]
00000000: 9e83 97bd e4cf d83c 2c35 be3c b3c3 64bd
00000010: b845 8a3d ae86 853d c958 cebd 5b6c ec3d
00000020: 317a d5bd 8207 a9bc b6b9 9a3d 9ee9 9ebd
00000030: bb08 d63c 96af 4abd 9c1a b53d ead6 ee3c
00000040: aa91 563d d067 07bd 8606 85bb 04d9 a7bd
00000050: d946 84bd f356 05bc 63c3 cf3d 14bb d53d
00000060: 15d8 50bd 6696 86bd 8a00 b13d cbb9 f3bc
00000070: 2223 c83d 842d a53d 1f8a 6ebc 2626 e8bd
00000080: 91a9 a8bd 772f abbb 77bc af3d dc24 23bd
00000090: be00 09bd 317c e63d 011a 7bbd afb1 133d
000000a0: 3f13 5b3d 5bc7 f8bd f985 4dbd e2b5 aebd
000000b0: 525d b8bd 81d4 91bd 9de2 5bbd 15da dcbd
000000c0: 182f 09bd 80e4 db3d fc78 b23d 1637 cabd
000000d0: 2783 783c 7bee febd 2942 abbd c1c8 bd3d
000000e0: 89df ed3d 7e9a 173a c417 8e3c 0f7d af3d
000000f0: 6578 693d 0389 99bc 17bd 963d c829 e83d
-0.07398151 0.026466317 0.023218714 -0.055850696 0.06751579 0.06519829 -0.10075528 0.11544105
-0.10423697 -0.020633463 0.07554953 -0.07759403 0.02612721 -0.049483858 0.08842966 0.029155213
0.05238501 -0.033057988 -0.0040596155 -0.08195689 -0.064588256 -0.008138406 0.10144689 0.10436073
-0.050987322 -0.06571655 0.08642681 -0.029751679 0.09772326 0.08065322 -0.014559298 -0.11335401
-0.08235467 -0.005224164 0.08580869 -0.039830074 -0.033447973 0.112541564 -0.061304096 0.036058124
0.05348515 -0.12147399 -0.050176594 -0.08530785 -0.090021744 -0.0712061 -0.053682912 -0.10783783
-0.033492178 0.10736942 0.08714482 -0.09873788 0.015167988 -0.1244783 -0.083622284 0.092668064
0.116149016 0.0005783214 0.017345317 0.08568775 0.056999583 -0.01874209 0.07360285 0.11336094

weight f4 [1, 64]
00000000: e47e 52bc 5304 17bf bb68 f4bc 6c95 cebe
00000010: ab36 cb3d 1cfe 7b3d 7fd5 e6bd 92a8 d3bd
00000020: 953c 0a3e e62d 9dbc 1d01 f8bd d614 4dba
00000030: 0f20 3fbd 8298 06bf e853 993e d7d2 443d
00000040: 52bc 003b 4d43 a23d db04 60bd 30e6 5ebf
00000050: dd42 55bd 5b56 963e 71f6 b5bd 877a 913d
00000060: 1ddd c6bd 1361 c53d e84c ff3d d34c 73bd
00000070: 58da dabc ba1c 64bd 21d2 103d 31d2 97bd
00000080: 86fb b8be 69ec 91bc 9e81 27bd 4e10 cebd
00000090: 9ddb 13bf 1712 993d 8c45 b0be 0670 2b3e
000000a0: b347 04bf 73d0 4fbe f85e b13e c63a f6bd
000000b0: c767 c6be 87b0 1d3d dbec 5d3d 4714 24bd
000000c0: 89ac f4bb a87d b8bd f4db d73d eb23 4a3d
000000d0: 0c99 c33d 1e72 88bd f581 8abd 128f 6bbe
000000e0: 2eee 313e 2b3d c53d 342a 67bc 1a11 eebe
000000f0: d815 19bd c5e8 87bd 5056 91bc 9688 2b3c
-0.012847636 -0.58990973 -0.029835096 -0.40348375 0.099225365 0.061521634 -0.1127119 -0.103348866
0.13499673 -0.019186925 -0.12109587 -0.0007823234 -0.046661433 -0.5257646 0.29946828 0.048052635
0.0019643498 0.07922993 -0.05469213 -0.8706999 -0.05206572 0.2936276 -0.088848956 0.07103448
-0.09710143 0.09637656 0.124658406 -0.059399437 -0.026715443 -0.05569146 0.035356645 -0.07413138
-0.36129397 -0.017812924 -0.040895097 -0.100617036 -0.5775698 0.074741535 -0.3442806 0.16741952
-0.51671904 -0.20294361 0.34642768 -0.12022929 -0.3875105 0.038498428 0.05418096 -0.0400584
-0.007466857 -0.09008342 0.105399996 0.04935066 0.09550676 -0.06662391 -0.067630686 -0.23003796
0.17376015 0.096308075 -0.014109183 -0.46497422 -0.037374347 -0.06636194 -0.017741352 0.010469576
