garage_back_end/projects/ppo/saved_models/2025_03_02_12_48_saved_actor_step_22_total_steps_100.pth (torch, 23050 bytes, 5 tensors)

weight f4 [64, 4]
00000000: af30 d7bd 8cf7 c3be 1a6c 78be 4e5f 9bbe
00000010: 1850 9a3e 0003 323e 5146 f63d 00ec 943e
00000020: 879d f03e 0fce 1a3e 904c 98bd 8072 eb3e
00000030: d911 41be dc86 dabd e735 ffbd 2a14 7fbe
00000040: 2f14 22be 92be cb3e 0dde e03e 576c 853d
00000050: 23ac 21bd 03fe 9d3e d0d7 6dbe dd2b 00bf
00000060: 7386 a8be f2e9 9cbe 72bd 1cbd 2286 bb3e
00000070: 473b f93e 4ff7 a23e 3e1f bbbd b029 ed3e
00000080: c277 e9be 8a53 e73e 1394 893d 98e6 aabe
00000090: dc2a 3e3d 8811 c03e 510d 9d3e f972 c2bd
000000a0: f93f ef3e bc6f e1be 80f3 b53e 4611 24be
000000b0: 1e29 e7be 418e 263e 4072 d33e 5cbb 853e
000000c0: 8457 0abd cadb 10bf abd5 9fbe 32a9 34be
000000d0: 771d 603e 3aaa 97be b8fe cc3d 30e8 ca3e
000000e0: 11c7 fd3e c772 2d3e 64dd 893d de10 33be
000000f0: c0aa b63e 39f7 c5be e1d3 f0be 1f74 0c3e
00000100: ad0b d5be 864a a2bd a414 ad3d deaf a9bd
00000110: cd65 c63e 026e b5be 371f fa3e 2625 fbbd
00000120: 86d0 80be d34c 813e be13 0dbd 7d65 aa3e
00000130: 7d1c c23e 04c3 fabe 6495 bebd 117e 3fbe
00000140: 0389 f8be 0401 c53e 5d12 4a3c 49ae d5bd
00000150: 3a0d 9bbe e7b3 683e 656b fcbd 4c2c 173e
00000160: 0769 aabd bcdf b6be 0ca7 15be 796b 4e3e
00000170: ff82 b0bd c758 6abe 7ed9 a0bd f497 c0bd
00000180: a80c e13e a952 a23d 1cb5 2dbe b975 d23e
00000190: fc95 93be 960f 463e d48c c0bc 0ced d6be
000001a0: 3361 173d 7118 a4bd b8c6 84be c5e6 5a3d
000001b0: d287 4dbe 0e07 73be b156 66be 5303 0ebe
000001c0: c883 d2bd e89c d73e 56d1 dc3d 04ab 99be
000001d0: 8565 fc3e e293 203e 6c19 91be a0b6 043f
000001e0: ade9 dcbe f9fb d7be d3a0 743d 69da 6dbe
000001f0: a9b7 d3bd 0c2c 77be 3243 c63d 019a 873e
00000200: 0c3e cebe eaa5 e4be 8ea6 9f3e 8f71 ba3e
00000210: 68de c5be b5cb 90be efca ffbe 3f78 41bc
00000220: d7c1 973e d5a6 98be 9fa1 c7be 3634 ddbe
00000230: ec48 95be d584 c13d 1856 a63e 5828 d53d
00000240: 66a2 8abe fb8d 27be 5620 903e 7332 68be
00000250: 3ac0 a0be ba5a 983e 24b2 e23e 8d5d 4b3e
00000260: ce10 88be 7478 e9be 9cd5 d8be 01dd 5bbb
00000270: c621 aa3e 11c0 a1be 943e 78be f4c2 6cbe
00000280: adc6 a6be 54fd fb3e 6182 03bf 116e 6d3e
00000290: 3660 df3d 0f35 98bc fb0e ee3e 8096 c13e
000002a0: 3d22 64be 100b adbe 3afa bbbd f057 87be
000002b0: dd56 dbbe 367d 68be 25d5 b0be e458 27be
000002c0: 18e2 68be a86e 93be 6cef abbe 72f9 7b3e
000002d0: 002a 703e 5237 6f3e dbd1 b4be 2727 96bd
000002e0: 943e 27be 5628 00bf ff03 93be d573 a23e
000002f0: 8360 453b a73a 61bc f5ac 48be 97b8 013f
00000300: 3cec 0e3f 4caf 11bd eb8e de3e 022f d33e
00000310: bf35 f6bb 3824 003f f611 973e b7f0 8d3e
00000320: 1c9f b6be 6679 c7bd 1486 c6be f9b4 883e
00000330: df78 68bd ecec da3c aa5c bfbd 5aa5 f83e
00000340: 15a9 ee3d f47c efbe a712 0dbe 8566 08be
00000350: f82c e53e 3b8c f03d 6b98 1bbe d103 43bc
00000360: bc04 b5bd d464 07be 9eb9 e43d c78b 123e
00000370: b2e9 103d 47bd e23e 8f50 15be 43eb c53e
00000380: 4089 b5bd 1a2a adbe e73e be3d 8df3 5e3e
00000390: 7a47 9fbe b78c f9bd 1bad 47bd ba82 813e
000003a0: 1f62 e4bb 7b51 293e 78de e83e 5c04 e83d
000003b0: 0a39 ea3d 029c 86be fae4 8c3e 1192 aebd
000003c0: bf87 72bd 5cb8 143e fb66 7abe b6a7 b33e
000003d0: 2b18 363e 9cf3 ccbe 15cf 643e 8a3a 8a3e
000003e0: cdf7 f73e e132 033e 9220 ab3e d507 6dbe
000003f0: c797 cabe 3f6c bebd 3975 b33d 7728 6c3e
-0.105073325 -0.382748 -0.24259987 -0.3034615 0.30139232 0.17383957 0.120251305 0.29086304
0.46995184 0.15117668 -0.07436478 0.45985794 -0.18854465 -0.10670254 -0.12461453 -0.24910036
-0.15828012 0.3979383 0.4391941 0.06514805 -0.039470803 0.30857858 -0.23226857 -0.5006693
-0.32915077 -0.30647236 -0.038266607 0.36625773 0.48678038 0.31829306 -0.09136818 0.46320868
-0.4559918 0.45180923 0.06717696 -0.33379054 0.046427593 0.37513375 0.30674222 -0.094945855
0.46728495 -0.4403056 0.35537338 -0.16022214 -0.45148557 0.16265203 0.41298103 0.26119506
-0.033774868 -0.5658537 -0.31217703 -0.17642668 0.2188624 -0.2962206 0.10009521 0.3963027
0.49565938 0.16938315 0.0673168 -0.17486903 0.35677147 -0.38665178 -0.4703665 0.13716172
-0.4161047 -0.079243705 0.084512025 -0.08285497 0.38749543 -0.35435492 0.4885194 -0.12262945
-0.2515909 0.25253925 -0.034442656 0.33280554 0.3791236 -0.4897691 -0.09305838 -0.18700434
-0.48542032 0.38477337 0.01233348 -0.10433633 -0.3028353 0.22724877 -0.123251714 0.14762992
-0.083208136 -0.3571757 -0.14614505 0.20158185 -0.086187355 -0.22885428 -0.07853983 -0.09403983
0.43954968 0.079259224 -0.16963619 0.4110544 -0.28825366 0.19341883 -0.023504652 -0.41977727
0.03695793 -0.08012474 -0.2593286 0.053442735 -0.20071343 -0.2373316 -0.22494008 -0.13868456
-0.102790415 0.42111897 0.10782115 -0.30013287 0.49296203 0.15681413 -0.28339708 0.51841164
-0.4314703 -0.42184427 0.059723686 -0.23227848 -0.10337765 -0.24137896 0.09680785 0.26484683
-0.40281713 -0.44657832 0.3118176 0.36414763 -0.38646245 -0.28280416 -0.49959514 -0.011808454
0.29640076 -0.29814783 -0.38990495 -0.43203896 -0.29157197 0.09449164 0.3248756 0.104080856
-0.27077025 -0.16362755 0.2814967 -0.22675495 -0.31396657 0.2975672 0.44276536 0.19859906
-0.2657532 -0.4559971 -0.4235047 -0.0033548477 0.33228892 -0.31591848 -0.24242622 -0.23121244
-0.32573453 0.49216712 -0.5137082 0.23186518 0.10907023 -0.018579988 0.46495804 0.37810135
-0.22278686 -0.33797503 -0.09178586 -0.26434278 -0.4283971 -0.22704014 -0.34537616 -0.16342503
-0.22742498 -0.28795362 -0.33581102 0.24606875 0.23453522 0.23360947 -0.35316357 -0.073316865
-0.16332465 -0.5006155 -0.28713986 0.31728998 0.003011734 -0.013746894 -0.19597228 0.50672287
0.55829215 -0.035567567 0.43468413 0.41246802 -0.0075137313 0.50055265 0.2950589 0.27722713
-0.35668266 -0.09739952 -0.38774168 0.2670057 -0.056755897 0.026724301 -0.09343846 0.48563653
0.116533436 -0.4677502 -0.13776647 -0.13320358 0.4476087 0.11745497 -0.15194862 -0.011902765
-0.08838794 -0.13222057 0.11168216 0.14311133 0.03537912 0.44285032 -0.14581512 0.38656053
-0.08864069 -0.33821183 0.092893414 0.21772595 -0.3110922 -0.12185042 -0.04874907 0.2529505
-0.0069697048 0.16534989 0.4548223 0.113289565 0.114366606 -0.262909 0.27518445 -0.08523954
-0.05921149 0.14523453 -0.24453346 0.3508889 0.17782657 -0.4002961 0.2234462 0.26997787
0.48431244 0.12812378 0.33423287 -0.23147519 -0.39568922 -0.0929799 0.08762593 0.23062311

bias f4 [64]
00000000: 03bf 02bc 9296 e13e 1b18 e4be 82fb e23e
00000010: 465e e13c 3140 adbd 4aca 433d 22b3 7d3e
00000020: fcad a53e 0a13 fd3e c9ec b2be 77ba 153e
00000030: 754f e83d 0420 dc3e 2232 ac3e 252c edbe
00000040: 0c47 c83c f7c4 fd3e 9bdb 0f3e c709 3d3e
00000050: 0394 f2be 7e18 033f 81c1 7ebd 82e9 38be
00000060: 8554 9b3e ef6e d9be 359e f4be 4cd4 a83e
00000070: 1eac ccbe 1a34 41bc a9b8 7c3e fb7d c2bd
00000080: 7a2e e33c eca9 b93c 8304 db3e 7c46 f5be
00000090: ba35 37be 0ea0 9abe fd8c b63e 6c9a babe
000000a0: c1e5 cfbe fa9a 89be b910 57be 8f92 c8be
000000b0: 2217 fe3e df6d 95bc 5561 86be 7caf b7be
000000c0: 6bbd adbe 285c 6bbc e991 c2bb 5237 07be
000000d0: 105f b9be d30d 3e3e de67 6a3d 37dc 0e3e
000000e0: 89f7 a0be 7b16 fdbd bf89 cb3d e114 d8be
000000f0: 4cdc dc3e ea37 b73e 5790 ddbc 5def f13e
-0.007980111 0.4406019 -0.4454964 0.4433251 0.027510773 -0.08459509 0.04780034 0.24775365
0.32359302 0.49428588 -0.34946278 0.14621912 0.1134328 0.42993176 0.33631998 -0.46322742
0.02444794 0.49564335 0.14048617 0.18460761 -0.4737855 0.5120925 -0.06219626 -0.18057826
0.3033792 -0.42467448 -0.47776952 0.3297447 -0.39975065 -0.011792207 0.24679817 -0.09496685
0.027732123 0.022664033 0.4277688 -0.47905338 -0.17891589 -0.30200237 0.3565444 -0.3644594
-0.40604976 -0.2687605 -0.21002473 -0.39174315 0.49627024 -0.018240867 -0.26246133 -0.3587607
-0.33933577 -0.0143652335 -0.005937804 -0.13204697 -0.3620534 0.18559961 0.05722796 0.13951193
-0.31438854 -0.123578034 0.09938382 -0.4220343 0.43136823 0.35784847 -0.027046366 0.47252932

weight f4 [64, 64]
00000000: 1533 c13d f870 c1bd 6ed1 23bd d3d2 923d
00000010: 78a3 d23d 128a 0cbe 18ce 05bb e266 07be
00000020: bacb e7ba 1264 75bd a9ba b5bd e305 913d
00000030: ff4b d8bd 8837 6bbd 483d ce3d 4691 1cbe
00000040: 21d5 e1bc a010 ff3c e924 c13d 8bc7 cabd
00000050: 40eb 02be 239c 7cbd a908 0cbe c74c 00be
00000060: 45d5 4b3b 7710 be3b 115d fbbd e604 723d
00000070: eda6 ca3d 8cf7 313d e15d 943d 3883 08be
00000080: 8970 4bbd b4f3 15be b530 f13d 1ea3 dfbd
00000090: 371f 533d 4c52 6cbd 9297 8a3d 7b77 793d
000000a0: 755c ecbd 4554 02be 84c3 a63d 3bcd 24bd
000000b0: ce85 5cbd 1991 7cbd 2443 7cbc 795e be3d
000000c0: 7ffb 47bd 5ca6 063d 5d4e ecbd 1cf1 1bbe
000000d0: f955 863d 3fe0 693d d45c 4c3d f091 273c
000000e0: 3ac3 003e 5e2e d43d 9227 eb3c bfae 983d
000000f0: ef54 55bd 01db 273d ebff 903d 4c98 0c3d
00000100: c0a0 093d 9e67 b03b 3907 02be 4d88 81bd
00000110: 468c 2dbd 568d bb3d 72ed 62bd 6d05 ecbd
00000120: 4092 863d 7fbc 9ebd 2aac 73bd c7ee 28bb
00000130: 6355 9cbd 7a72 7abd 9666 96bd 18c0 7ebd
00000140: 2197 8abd cea3 dbbc db4f e7bd b0f6 1d3a
00000150: 6953 05be 7dc1 9c3c 57b8 193e 6e62 c9bd
00000160: 1c47 1c3d c2a1 09be 5fa0 b4bd 7ab5 15be
00000170: a034 dfbd 2a96 07be 82ce dbbc 2310 023e
00000180: 0998 283d c200 473c 87ba 443c 07eb 05be
00000190: 5d1d a0bd 1738 3f3d 8a69 0a3d 7ee3 14be
000001a0: 6ffe 0abe f817 12bd 7999 1fbd d7b9 1bbe
000001b0: 6970 e0bb 8f4e 08bc 130e 40bd 764d a4bd
000001c0: 3036 3fbd 4b04 1abd 3238 37bd d146 333d
000001d0: 6a0f 78bd 7907 e2bd 02a9 583d 5ea7 9abd
000001e0: bccb 87bd 3797 8c3c 1010 00bd 0a87 ff3c
000001f0: e482 983c f789 c53d b123 09be 440f bbbc
00000200: d40e 0e3e aeb9 17bd 0948 14be 533d 97bd
00000210: 9e0c 17bb 3e3c 033d c186 98bd 47b1 42bd
00000220: 0b7f fe3d cd1d 7b3c e38b c6bc c634 bcbb
00000230: 453c 063e a770 37be 15c8 bbbd befb 9f3d
00000240: bc15 6b3d d8f3 b3bd 242c 113d 5642 63bd
00000250: 39af 58bd ef0e 013e b022 953b 3071 d1bd
00000260: 1ce3 26be 04d7 dfbc 792f 33bc a4a4 1b3e
00000270: 5cb7 103e f527 c5bd ce4a 853d a293 9ebd
00000280: 0290 2a3e fbab 063e 6cb3 4f3c fb0a c43d
00000290: 1d4b 903c 0cab 9ebd 0d04 fabc d3ce 3e3d
000002a0: af72 69bc 9c5b 1dbd 36fb cc3d b194 7abc
000002b0: b30a e93d 5400 b23d 1665 bc3d 71b9 e4bd
000002c0: f68f a73d 6aa2 fd3d 5b16 d43c 53f5 9a3d
000002d0: 8c6a 24bc eaa5 863d 16c8 a43d 54f4 1b3d
000002e0: 72b4 6dbd aa9d 8cbb 34cc 4fbc bde1 893d
000002f0: f107 a43c 9ac3 6abd 8d87 68bd fd39 823d
00000300: 2913 073e 7c7d 31bd 7687 0ebe 92bb 183a
00000310: 27a1 0e3e b9d1 28bb 0e78 43bd 70be 7abd
00000320: f1f0 50bc 7ab2 dfbd 72bd 8fbd 679e 9abd
00000330: ce09 a23d d9b8 cdbc cded 7d3d 5736 f43d
00000340: 9312 0c3b 883c 543d 7630 933d 89af 58bc
00000350: d111 173e a4eb 4fbd 283f b63c d344 f03d
00000360: e876 c3bd 70e5 b53d d8cd d53d 5b2f ab3d
00000370: f475 8d3c 6a6c 22bd eccd e13d d9ef d03d
00000380: d372 80bd e854 d33d 67bb debc d2dc d83c
00000390: 382c babd fb97 11bd 6dbc 52bb 9bbb a93d
000003a0: e014 0b3e 07c0 d53a f4f2 c93d 4cdc 063d
000003b0: 561c c03d 11a9 923d 62f5 debc c134 df3d
000003c0: 0d0f 17be 19d8 d53d cb15 eb3c 2469 0fbd
000003d0: d61c 083c 3424 8d3c 13cf 293d 27ab c6bd
000003e0: 2f51 a8bd cbfd 05bd 631e 8fbd 2dab f03d
000003f0: 6883 433d 7d72 b2bd 796c c33c d458 103e
0.09433571 -0.09445375 -0.03999465 0.07169118 0.102850854 -0.13724545 -0.002041703 -0.1322284
-0.0017684617 -0.059909888 -0.08873493 0.07081201 -0.1056137 -0.057426006 0.10070282 -0.15289792
-0.027567448 0.031135857 0.09430868 -0.09901341 -0.12785053 -0.06167234 -0.13675179 -0.12529288
0.003110246 0.0058003026 -0.122736104 0.059086703 0.0989512 0.04344897 0.072444685 -0.13331306
-0.04966787 -0.14643747 0.11776868 -0.10919784 0.05154344 -0.057695672 0.06767191 0.06090496
-0.11541072 -0.12727459 0.081427604 -0.040234786 -0.053838544 -0.061661813 -0.015396867 0.09295363
-0.04882383 0.032873496 -0.11538384 -0.15228695 0.06559367 0.057098623 0.049893215 0.010227665
0.12574473 0.10360406 0.028705392 0.07455205 -0.052082952 0.040980343 0.070800625 0.03432493
0.03360057 0.005383446 -0.12698068 -0.063248254 -0.042370103 0.09157817 -0.055402227 -0.115244724
0.06570864 -0.077507965 -0.05949036 -0.0025777088 -0.07633474 -0.06114433 -0.073437855 -0.062194914
-0.06767107 -0.026811507 -0.11294528 0.0006025834 -0.130201 0.019135231 0.15011726 -0.09833227
0.038153753 -0.13440612 -0.08819651 -0.14620009 -0.10898709 -0.13240877 -0.026831869 0.12701468
0.041160617 0.012146177 0.012007362 -0.13077937 -0.078181006 0.04668435 0.033792056 -0.14539906
-0.13573621 -0.03566739 -0.038964722 -0.15207611 -0.006849338 -0.008319511 -0.046888422 -0.08022587
-0.046682537 -0.03760175 -0.044731326 0.043768708 -0.060561575 -0.110365815 0.052895553 -0.07551454
-0.06630656 0.017161949 -0.03126532 0.031192321 0.018617101 0.09645455 -0.13392521 -0.022834428
0.13872844 -0.037042312 -0.14480604 -0.073847435 -0.0023048292 0.032039873 -0.07447577 -0.047532346
0.12426575 0.015326929 -0.024236625 -0.005743596 0.13108929 -0.17914067 -0.09169022 0.07811688
0.057393774 -0.08786744 0.035442486 -0.055483185 -0.05290148 0.12603353 0.004551254 -0.10226667
-0.16297573 -0.027324207 -0.010936611 0.15199524 0.14132446 -0.09626762 0.065084085 -0.077430025
0.16656497 0.13151543 0.012677055 0.09572407 0.017613942 -0.07747468 -0.03051951 0.04658396
-0.014248534 -0.038417444 0.10008852 -0.01529424 0.11378994 0.08691469 0.09198968 -0.11168183
0.08181755 0.12384494 0.025889566 0.07566323 -0.010035168 0.06574614 0.08045976 0.038074806
-0.058033414 -0.004291256 -0.012682963 0.06732509 0.020023318 -0.057315446 -0.056769896 0.06358717
0.13190903 -0.04333256 -0.13918862 0.000582629 0.13928662 -0.002575977 -0.047721915 -0.06121677
-0.012752757 -0.109227136 -0.07018556 -0.07549744 0.07912026 -0.025112556 0.061994363 0.11924427
0.0021373376 0.05181554 0.071869776 -0.013225445 0.1475289 -0.050761834 0.022246912 0.11731877
-0.09544164 0.08881652 0.10439652 0.08358642 0.017268158 -0.039654173 0.110256046 0.10201997
-0.06271901 0.10318929 -0.02718897 0.026472483 -0.09090465 -0.03554533 -0.0032155768 0.08287736
0.13582182 0.0016307839 0.09860793 0.032924935 0.09380405 0.07161153 -0.027216617 0.10898734
-0.14751835 0.10441608 0.028696915 -0.03501238 0.008307656 0.017229177 0.041457247 -0.097006135
-0.082186095 -0.03271274 -0.06988218 0.11751399 0.04773274 -0.08713243 0.023855435 0.14096385

bias f4 [64]
00000000: 4862 0a3d e03c ec3c 113a 6e3d 20c5 98bd
00000010: 9a7c 08be 5c01 42bc 46b7 c4bd a785 9fbd
00000020: 5644 89bd fd63 f9bc 6cb9 70bd dfb4 543d
00000030: 3e71 413d 6a3f 3fbc 74e2 ffbd 4f35 e5bd
00000040: 010c fa3c b911 1a3d 30f5 1a3e cc48 5abd
00000050: ac86 67bd 2251 f7bd eea0 1f3c ca57 c7bd
00000060: f14d 5b3d 8b33 8a3c d19f 523d 582a 80bd
00000070: 8227 8cbd 9376 593d 820e 80bd 949b b83d
00000080: 5aa7 27bd b3bf ed3c 1a8e 443c 8bbf 2f3c
00000090: 578a 453d 6775 823d c6d6 f2bc 7b79 aabd
000000a0: 5862 5c3d 9b74 9e3d aab0 e9bd 5872 633c
000000b0: efaf 78bd adc6 aebc 90b3 86bd 5bb6 c2bd
000000c0: 1b2e 673d ba14 b23d f424 8b3d 8fa2 c03c
000000d0: 8d88 6abd dd51 4fbd d10b d73c c9a7 07be
000000e0: daff c23d 1743 873d f1ae 493d f5ca c4bd
000000f0: af78 953d c794 993c 29df 893c 229a 20bd
0.033785135 0.028837621 0.058160845 -0.074594736 -0.13328782 -0.011841144 -0.09605269 -0.07789164
-0.06702487 -0.030443186 -0.058770582 0.051930305 0.047227137 -0.011672834 -0.124943644 -0.111918084
0.030523302 0.037614558 0.15132594 -0.05329208 -0.056524917 -0.12076022 0.0097429585 -0.09733541
0.053541128 0.01687028 0.051421944 -0.062580764 -0.06843473 0.053091597 -0.06252767 0.09014049
-0.040931083 0.029022073 0.01199677 0.01072682 0.048227634 0.06370049 -0.029643428 -0.08323952
0.053804725 0.077370845 -0.11410649 0.013882242 -0.06071466 -0.02133497 -0.065772176 -0.09507438
0.056440454 0.086953595 0.067941576 0.023515014 -0.05725913 -0.05061518 0.026250752 -0.13247599
0.09521456 0.06604593 0.049239103 -0.096090235 0.07298409 0.0187477 0.016830044 -0.039209493

weight f4 [1, 64]
00000000: 5baf d0bd fd5a 85bc 6c27 a6bd c612 6ebd
00000010: e61c dc3d aade 703c b556 c43c f3df d7bd
00000020: 971e 203d 5ba9 e53d c6cf 7d3c 46c2 ddbd
00000030: 8b75 353d ed7f 0cbe 6f44 43bc 6a12 c8bb
00000040: f56a 8bbc ab5e 28bd 1be9 d3bd f971 83bd
00000050: 7769 ba3c 9219 443e 270a 9c3c c8e7 43bc
00000060: d316 c83c 9108 9bbc 7a76 1c3d e496 bc3d
00000070: b6ca 3e3d 2384 99bd fc20 fabd f263 29be
00000080: e598 1b3c 05cf c9bc 2458 e53c 253b b33d
00000090: 3c72 2cbd b70e 8a3c 031b 3e3d 5f23 1f3d
000000a0: 1380 e7bc 534c 9fbc 5deb 80bd d3f8 ffbc
000000b0: 6f8a bf3d d4eb 163e 8543 843d be00 e5bc
000000c0: 1c33 2fbc aa2e e8bd 42b6 aebd 8840 04bd
000000d0: a3cb 843d 763c e43c 0ad6 92bd 7f9d 053d
000000e0: f574 cbbd cb9f 38bd 1418 a6bc 0931 e4bd
000000f0: 744b 43bc 8b60 e23d 7915 7f3d a68a 713c
-0.101896964 -0.016278738 -0.08112988 -0.058123372 0.107476994 0.014701525 0.023967126 -0.10540762
0.039091673 0.112139426 0.015491432 -0.1082807 0.04430155 -0.13720675 -0.011918171 -0.0061057108
-0.017018775 -0.041105907 -0.10347196 -0.06418223 0.022755368 0.1915038 0.01904781 -0.011957116
0.024424946 -0.018924983 0.038198926 0.092084676 0.04658004 -0.07495906 -0.122133225 -0.16542032
0.009496902 -0.024634847 0.02799613 0.08751515 -0.04210113 0.01685272 0.04641248 0.038852092
-0.028259313 -0.019445574 -0.06294892 -0.031246578 0.09352576 0.14738399 0.06458191 -0.027954455
-0.010693338 -0.113370255 -0.08530857 -0.032288104 0.06484153 0.027860861 -0.07169731 0.032620903
-0.09934417 -0.045074265 -0.020275153 -0.11142165 -0.011919845 0.1105357 0.062276337 0.014742529
